ml/model.onnx (onnx, 1608 bytes, 6 tensors)

0.weight f4 [16, 5]
0	0x3f0cea3a	0.550449
1	0x3d85a1d8	0.0652501
2	0x3e950e12	0.29112297
3	0x3e57fd17	0.2109264
4	0x3e328f33	0.17437439
5	0xbe952a59	-0.2913387
6	0xbecf6d81	-0.40513232
7	0x3e1d7e45	0.15380199
8	0xbe8718a9	-0.26386002
9	0xbe5c518a	-0.2151548
10	0x3e2be30a	0.16785827
11	0xbeed54de	-0.4635381
12	0x3e4609f4	0.19339734
13	0x3e6e6df8	0.23284137
14	0x3d5835bd	0.052785624
15	0x3e42a8ba	0.19009677
16	0xbe9ece40	-0.3101673
17	0xbe489345	-0.19587429
18	0xbe230fb1	-0.15923955
19	0xbdf8104c	-0.121124834
20	0x3e1871dd	0.14887185
21	0x3da11f03	0.07867243
22	0x3ed04f1f	0.40685365
23	0xbd95d2c2	-0.073155895
24	0x3ee34064	0.44385064
25	0x3dcd7735	0.100325026
26	0xbee125f7	-0.43974277
27	0x3e513975	0.20432074
28	0x3f00e91e	0.5035571
29	0x3e2f83ea	0.17140165
30	0xbe9c21aa	-0.30494434
31	0x3d4a65a8	0.049413353
32	0xbf1d1da0	-0.6137333
33	0xbe1f225e	-0.15540454
34	0x3d93e558	0.07221478
35	0xbeb230f2	-0.34802967
36	0xbd07aa39	-0.03312132
37	0xbe0369a8	-0.12833273
38	0xbf01a6ac	-0.50644946
39	0xbe26ae4d	-0.16277428
40	0x3f1182d8	0.56840277
41	0x3e56259b	0.20912783
42	0x3df70559	0.12061567
43	0x3ea3b7db	0.31976208
44	0x3db4c633	0.08826866
45	0xbdc69e26	-0.09698133
46	0x3eceb63d	0.40373412
47	0xbeae6780	-0.3406334
48	0x3e6878c4	0.22702318
49	0xbee6cc35	-0.45077673
50	0xbf2b5feb	-0.66943234
51	0xbe45a911	-0.19302775
52	0xbcc632f7	-0.024194224
53	0xbf0e1dd3	-0.5551426
54	0xbe44929e	-0.19196555
55	0xbecbbff2	-0.3979488
56	0x3eb6586a	0.3561433
57	0xbe42d606	-0.19026956
58	0xbf1bf63c	-0.609226
59	0xbe871155	-0.2638041
60	0x3e2404e3	0.16017489
61	0xbe629c74	-0.22129995
62	0x3edb5aa9	0.42842606
63	0x3d5395e2	0.05165661
64	0x3e972738	0.2952211
65	0xbe04283d	-0.12905975
66	0xbeb6dda3	-0.3571597
67	0xbddd8a2a	-0.10817368
68	0x3ed3bc6b	0.4135469
69	0xbe8497e6	-0.2589714
70	0xbeaaf12c	-0.33387125
71	0x3efbf9e7	0.49214098
72	0x3cd798eb	0.026318034
73	0xbed81ddb	-0.42210278
74	0xbe54a3b4	-0.20765573
75	0xbf1c9e59	-0.6117912
76	0x3ea13a51	0.31489804
77	0xbe347bd0	-0.17625356
78	0x3e2640d1	0.16235663
79	0xbe0226c4	-0.127101

0.bias f4 [16]
0	0x3deb0d2c	0.11477122
1	0x3d964122	0.07336642
2	0x3e3158e7	0.1731907
3	0xbec89907	-0.3917925
4	0xbdc34bdd	-0.09535954
5	0x3e1694cc	0.14705199
6	0x3eaea016	0.3410651
7	0xbe2505e8	-0.16115534
8	0xbdc68956	-0.096941635
9	0x3e99f8be	0.30072588
10	0x3eef73f2	0.46768147
11	0x3bae689d	0.0053225295
12	0x3eafffc3	0.34374818
13	0x3e6c9f0c	0.23107547
14	0x3ef98fe0	0.4874258
15	0x3e480345	0.19532497

1.weight f4 [8, 16]
0	0x3e982008	0.29711938
1	0x3db59a1b	0.08867284
2	0x3e56b7fc	0.20968622
3	0x3e3d3dd0	0.18480611
4	0x3df84505	0.121225394
5	0x3ea3118c	0.31849325
6	0xbca3c666	-0.019992065
7	0xbe96d415	-0.2945868
8	0x3ed275e8	0.4110558
9	0xbde94dac	-0.11391768
10	0xbe398059	-0.18115367
11	0xbee88c01	-0.45419315
12	0x3e499a6c	0.19687814
13	0x3c571478	0.013127439
14	0x3dc4f910	0.096178174
15	0xbeb91d51	-0.3615518
16	0x3deeddf1	0.11663426
17	0x3da8d822	0.08244349
18	0xbc94d97f	-0.018170116
19	0xbddc6c84	-0.10762885
20	0xbe83bae9	-0.2572854
21	0x3dcff95f	0.10154986
22	0x3da58e0d	0.08083735
23	0xbc8de336	-0.017320257
24	0x3e07f105	0.13275535
25	0xbd6eb537	-0.05827829
26	0xbd7fb8b7	-0.062432017
27	0xbe00043b	-0.12501614
28	0xbe048a48	-0.12943375
29	0xbe4356ed	-0.19076128
30	0x3da8c556	0.08240764
31	0xbe316019	-0.17321815
32	0xbe7ea8a1	-0.24869014
33	0x3d8e8f1b	0.06960889
34	0xbe35a5f6	-0.1773909
35	0xbbbcee1a	-0.0057656886
36	0xbe3db493	-0.18525915
37	0xbdacc794	-0.08436504
38	0x3d467cb0	0.048458755
39	0x3ea9ff5f	0.33202645
40	0x3d2eff02	0.042723663
41	0x3e730a76	0.2373446
42	0x3ec24ed9	0.3795078
43	0x3e622f84	0.22088438
44	0x3a5a19a7	0.00083198625
45	0xbdafa0df	-0.085756056
46	0x3cb0f09c	0.021599106
47	0x3e908198	0.28223872
48	0x3e0ca72e	0.13735649
49	0xb85235b6	-5.0117924e-05
50	0xbd265676	-0.0406098
51	0x3e1116b5	0.14168818
52	0x3e715a52	0.2356961
53	0x3ce468d2	0.027882013
54	0xbef0a933	-0.4700409
55	0xbe1e576d	-0.15463038
56	0xbda1b221	-0.078953035
57	0xbe198914	-0.14993697
58	0xbeb875ff	-0.36027524
59	0xbebe0751	-0.37114957
60	0x3d3b4320	0.045718312
61	0x3c3f31a0	0.011669546
62	0xbe3df120	-0.18549013
63	0xbd9fe95d	-0.078081824
64	0x3dd4413f	0.10364007
65	0xbd771ff7	-0.06033322
66	0xbc819f55	-0.015823046
67	0xbddffa1b	-0.10936376
68	0x3d4b7990	0.049676478
69	0x3e6c58e4	0.23080784
70	0xbed08ae1	-0.40730956
71	0xbea5baf3	-0.32369193
72	0x3ebf22a7	0.37331125
73	0xbd1f1463	-0.0388378
74	0xbe00f9e5	-0.12595327
75	0xbda3c4ca	-0.07996519
76	0x3d9da349	0.0769716
77	0xbd258ef6	-0.04041954
78	0xbde2d5e1	-0.110759504
79	0xbbf580ed	-0.007492176
80	0x3e8c6a11	0.27424672
81	0x3e0c5959	0.13705958
82	0xbdbbc114	-0.09167686
83	0xbe465ebe	-0.19372079
84	0xbda4fc1c	-0.080558985
85	0x3eb6c2e4	0.35695565
86	0xbe623337	-0.2208985
87	0xbd98ebbb	-0.07466837
88	0x3d6550ac	0.055985138
89	0xbcba1ef4	-0.022719838
90	0xbec2bee7	-0.38036272
91	0xbec7d1ad	-0.39027157
92	0x3c32f6b7	0.010923079
93	0x3e2d9a97	0.16953503
94	0xbe16305b	-0.14666884
95	0xbcbb9489	-0.022897976
96	0x3b05483b	0.0020337242
97	0xbe5e5aa2	-0.21714261
98	0x3e11f90d	0.14255162
99	0x3dde9d9b	0.108699046
100	0x3e63a598	0.22231138
101	0x3e8b4394	0.27199996
102	0xbeef0f1c	-0.46691215
103	0x3dd7d560	0.10538745
104	0x3e766eef	0.24065755
105	0xbe8c0d6f	-0.27354
106	0xbe887764	-0.26653588
107	0xbec8c1bc	-0.39210308
108	0xbe4a90a8	-0.19781744
109	0xbdb34d0a	-0.087549284
110	0xbe21cfd0	-0.1580193
111	0xbe70db86	-0.23521242
112	0xbde55f43	-0.1119981
113	0xbdf1fd62	-0.11815907
114	0xbebfcc8c	-0.37460744
115	0x3db49625	0.088177
116	0xbdb73412	-0.089454785
117	0xbebbd94c	-0.36689222
118	0x3e14c37d	0.14527698
119	0x3e954260	0.29152203
120	0xbde63567	-0.112406544
121	0x3e5d8c29	0.21635498
122	0x3e337d7b	0.17528336
123	0x3e9c8f5d	0.30578128
124	0xbdaa5a79	-0.083180375
125	0x3d20e804	0.039283767
126	0x3c703e1c	0.0146632455
127	0x3e4237ed	0.18966646

1.bias f4 [8]
0	0xbe84c7a8	-0.25933576
1	0x3d8cc8a0	0.06874204
2	0x3d92b416	0.07163255
3	0x3cfe5c18	0.031049773
4	0x3dc991a6	0.09842233
5	0xbea76e02	-0.32701117
6	0x3da7dc58	0.08196324
7	0x3bb7c9e2	0.005608783

2.weight f4 [2, 8]
0	0xbe9c7e01	-0.30564883
1	0xbe322419	-0.17396583
2	0x3f07e186	0.53078496
3	0xbf0d7835	-0.55261546
4	0xbe94491d	-0.2896203
5	0xbeb659e6	-0.35615462
6	0xbdd96aa5	-0.10616044
7	0x3eadaa40	0.33918953
8	0x3eb99abf	0.36250874
9	0xbe4d2be5	-0.20036276
10	0xbd0ab20e	-0.033861212
11	0x3e0a9946	0.13535032
12	0x3de1af01	0.110197075
13	0x3ec42583	0.3830987
14	0x3ef7ee76	0.4842412
15	0xbdc7c7a3	-0.097548746

2.bias f4 [2]
0	0xbe0baf41	-0.13641073
1	0x3da67af5	0.08128921
